android/app/src/main/assets/stress_model.tflite (tflite, 28192 bytes, 4 tensors)

arith.constant f2 [128, 19]
000000 1f b2 f0 30 32 2c 25 30 36 b0 68 b2 20 b1 8d 2c
       -0.1913 0.1543 0.06555 0.1295 -0.1316 -0.2002 -0.1602 0.0711
000010 6f 2d b2 ab 2c ad 9a 1f cd 2f 55 2d 07 1e 92 ac
       0.0849 -0.06012 -0.0808 0.007423 0.1219 0.0833 0.005886 -0.0714
000020 77 a9 c4 b0 10 b1 66 b2 b0 a6 dd 2f f4 2f 2d ad
       -0.0427 -0.1489 -0.1582 -0.2 -0.02612 0.12286 0.12427 -0.0809
000030 97 31 3e 32 f5 af a5 b1 f2 27 56 2e 5c b0 56 31
       0.1747 0.1951 -0.1243 -0.1764 0.03104 0.099 -0.1362 0.1667
000040 12 29 5c b1 0d 2a 83 b0 6c 2a 95 b1 c8 af dd ac
       0.0396 -0.1675 0.04727 -0.141 0.05017 -0.1744 -0.1216 -0.076
000050 af af db 31 12 b1 72 a8 a4 a8 59 2a 09 29 24 30
       -0.12006 0.183 -0.1584 -0.03473 -0.03625 0.0496 0.03934 0.1294
000060 8f a3 f9 1d a7 29 be a8 ae 24 b6 b0 ce 30 69 b1
       -0.01476 0.005833 0.04416 -0.03705 0.01828 -0.1472 0.1501 -0.1691
000070 38 31 46 b1 01 2f 10 2d 8b ae 81 31 73 b1 e4 b1
       0.1631 -0.1648 0.10944 0.0791 -0.10223 0.172 -0.1703 -0.1841
000080 78 26 1c 2e 64 32 0b b1 f8 31 5f 2f 92 30 21 a5
       0.02527 0.09546 0.1997 -0.1576 0.1865 0.1152 0.1428 -0.02003
000090 25 27 01 ae c2 ac e4 ac 87 31 78 ad e2 ad 94 2d
       0.02791 -0.0938 -0.07434 -0.0764 0.1727 -0.08545 -0.0919 0.08716
0000a0 e0 30 21 9f 7d 2a 1c ad 5f 27 39 2c 59 2d 51 31
       0.1523 -0.00696 0.0507 -0.07983 0.0288 0.066 0.08356 0.1661
0000b0 ee aa ea 2f 59 b2 5a 32 00 ae 2c 30 bb b1 f1 2f
       -0.05414 0.12366 -0.1984 0.1985 -0.09375 0.1304 -0.1791 0.1241
0000c0 f7 ac 12 30 e8 2f b4 20 20 30 bf aa 2d a9 89 2c
       -0.0776 0.1272 0.12354 0.009186 0.1289 -0.0527 -0.04044 0.07086
0000d0 b8 b1 18 30 a5 2a 6b aa 29 ad fe 28 6e 30 6c b0
       -0.1787 0.1279 0.0519 -0.05014 -0.0806 0.039 0.1384 -0.1382
0000e0 ae b0 70 2f 1c 9c af b1 66 27 12 21 34 2c a3 29
       -0.1462 0.1162 -0.004013 -0.1776 0.0289 0.0099 0.0657 0.04404
0000f0 24 b1 93 b0 a0 a2 a9 ab 2b 2a 3f ac 79 ab f8 af
       -0.1606 -0.143 -0.01294 -0.05984 0.0482 -0.06635 -0.05838 -0.1245
000100 d2 23 8c 2d f7 b1 46 ae 5d 2c 67 2a 7e a8 82 2c
       0.015274 0.0867 -0.1864 -0.098 0.0682 0.05002 -0.0351 0.07043
000110 b3 ab 9f af cd b1 74 b1 94 2e c9 21 9c 2a e9 2c
       -0.06015 -0.1191 -0.1813 -0.1704 0.1028 0.0113 0.05164 0.0767
000120 18 2c 3c b1 a1 b1 f0 b1 1f 2e 38 ae 63 a3 1b b2
       0.06396 -0.1636 -0.1759 -0.1855 0.09564 -0.09717 -0.01443 -0.1908
000130 d8 a5 4b 30 38 b2 35 2d 07 a8 06 32 68 b0 63 ae
       -0.02283 0.1342 -0.1943 0.08136 -0.03146 0.1882 -0.1377 -0.0998
000140 bf b1 d1 31 c8 2d 94 b1 2a 1e 25 b2 fc 9b 84 2a
       -0.1796 0.1818 0.09033 -0.1743 0.00602 -0.192 -0.003899 0.0509
000150 0c af 60 30 fd ae 79 ad e7 aa c1 2c 3a 30 d6 30
       -0.1101 0.1367 -0.1092 -0.0855 -0.05392 0.0743 0.1321 0.1511
000160 16 21 99 ac 75 30 8b 2c f7 b0 36 b1 39 ae 0a aa
       0.00993 -0.07184 0.1393 0.071 -0.1552 -0.1628 -0.0972 -0.04718
000170 8a 2b 2d b0 24 ae 05 b1 38 b0 31 b0 2a 31 91 a4
       0.0589 -0.1305 -0.09595 -0.1569 -0.1318 -0.131 0.1614 -0.01784
000180 84 30 39 2a 10 2e 0c b2 5a 30 24 aa c7 2e 60 30
       0.1411 0.0486 0.0947 -0.189 0.136 -0.04797 0.1059 0.1367
000190 c6 2f 0c 21 f6 af 2a af 12 a5 4a 30 da aa b3 2d
       0.12146 0.00986 -0.1244 -0.11194 -0.0198 0.134 -0.05353 0.08905
0001a0 0e b1 08 ac 14 b2 40 31 a2 b1 3b 2a 5d 31 c4 b1
       -0.158 -0.063 -0.19 0.1641 -0.176 0.04868 0.1676 -0.1802
0001b0 a2 30 f2 af 71 2d d9 28 42 32 99 a2 05 30 e9 29
       0.1448 -0.12415 0.085 0.03787 0.1956 -0.012886 0.1256 0.04617
0001c0 dc 31 7b 28 c7 9a 1a af 43 26 02 a6 af 2c 21 a8
       0.1831 0.035 -0.00331 -0.11096 0.02446 -0.02347 0.0732 -0.03226
0001d0 60 31 33 ac da a5 b5 25 0d a9 4b 20 6d 31 8b b1
       0.168 -0.0656 -0.02286 0.0223 -0.03946 0.008385 0.1696 -0.1732
0001e0 94 2c 80 2e 7a ac aa 2c 06 2e 16 b0 2d 2d cd ac
       0.07153 0.10156 -0.06995 0.0729 0.0941 -0.1277 0.0809 -0.075
0001f0 6f 28 75 1c 55 b2 f4 ac 03 2f 4d a1 21 af 22 ab
       0.03464 0.004353 -0.1979 -0.0774 0.10956 -0.01035 -0.1114 -0.05573

arith.constant1 f2 [2, 32]
000000 74 2f b6 b5 4b 27 cf b0 39 33 7f 36 39 b5 0e b5
       0.11646 -0.357 0.02849 -0.1503 0.2257 0.406 -0.3264 -0.316
000010 81 36 a7 b6 63 b5 b7 35 2c 34 70 33 54 2f ca a9
       0.4065 -0.4158 -0.3367 0.3572 0.2607 0.2324 0.1145 -0.04523
000020 45 b6 9f 31 31 af df af fb b2 af 34 71 36 25 ad
       -0.3918 0.1757 -0.11237 -0.123 -0.2181 0.2927 0.4026 -0.0804
000030 18 2c 9a 34 6d 34 8f 36 17 b4 12 b3 7d b2 f3 b0
       0.06396 0.2876 0.2766 0.41 -0.2556 -0.221 -0.2028 -0.1547
000040 b7 ac b9 b5 d0 2c a6 b0 72 b2 69 34 f4 b2 b9 2a
       -0.07367 -0.3577 0.0752 -0.1453 -0.2014 0.2756 -0.2173 0.05252
000050 da ad 0b a2 f1 b4 d1 29 5e b4 36 35 31 23 a1 31
       -0.09143 -0.0118 -0.3088 0.04544 -0.273 0.3257 0.014046 0.1759
000060 69 b6 4f 36 52 23 4c 33 ff 27 f8 2f 62 35 d0 30
       -0.4006 0.3943 0.0143 0.228 0.03123 0.1245 0.3364 0.1504
000070 7a b0 17 35 5d b0 9b b6 74 32 2b b5 ca 20 c8 a4
       -0.1399 0.318 -0.1364 -0.4128 0.2017 -0.323 0.00935 -0.01868

arith.constant2 f2 [64, 128]
000000 9e 2d 98 a7 05 30 4d 2c 9b 25 86 b1 42 b1 99 2e
       0.08777 -0.02966 0.1256 0.0672 0.0219 -0.1726 -0.1643 0.1031
000010 58 ac d7 a8 99 28 1d b1 09 29 81 a9 76 29 a4 31
       -0.0679 -0.0378 0.03592 -0.1598 0.03934 -0.043 0.04266 0.1763
000020 f1 b0 f2 ae 9a 28 28 2d 3f 2d b7 2b 27 2c b7 ab
       -0.1544 -0.1085 0.03595 0.08057 0.082 0.06027 0.0649 -0.06027
000030 cf a9 49 25 4d 29 6d 2e 0f b1 cf 25 97 31 ff 25
       -0.04538 0.02065 0.0414 0.1004 -0.1581 0.02269 0.1747 0.02342
000040 2a 2e 3a ae 7a b0 6b a8 7c b1 e5 2b ed 2e 68 b1
       0.0963 -0.0973 -0.1399 -0.03452 -0.1714 0.06168 0.1082 -0.169
000050 71 20 22 29 52 2c 77 ae 89 22 9e 31 02 a3 6e 0d
       0.008675 0.0401 0.0675 -0.101 0.012764 0.1755 -0.01369 0.0003314
000060 8e a0 d0 ac c8 28 51 2e 8e 2f e8 30 00 31 f8 30
       -0.008896 -0.0752 0.03735 0.0987 0.11804 0.1533 0.1562 0.1553
000070 aa 2a e3 29 25 2b 40 b1 91 a4 aa 30 f8 2f 37 2e
       0.05206 0.046 0.05582 -0.1641 -0.01784 0.1458 0.1245 0.0971
000080 82 b1 eb 30 85 a7 f1 a9 8d b0 a2 b0 32 b0 57 30
       -0.1721 0.1537 -0.02937 -0.04642 -0.1422 -0.1448 -0.1311 0.1356
000090 c8 2c 55 b1 3a ae 77 2b 1f ac 1f b1 df 30 9c a8
       0.0747 -0.1666 -0.0973 0.05832 -0.0644 -0.16 0.1522 -0.036
0000a0 31 2c b8 a5 ff a9 c8 b0 4d a0 c1 ae 54 2a 51 b1
       0.0655 -0.02234 -0.04684 -0.1494 -0.0084 -0.1055 0.04944 -0.1661
0000b0 08 30 1d a7 ff 26 f7 aa 6f 31 b9 27 87 2f 7a 31
       0.126 -0.02779 0.02733 -0.0544 0.1698 0.03017 0.1176 0.1711
0000c0 77 26 28 b1 1a 26 f5 2d 2b 1e 19 af 3b 31 74 2b
       0.02525 -0.1611 0.02383 0.0931 0.006023 -0.1109 0.1635 0.05823
0000d0 25 2e 57 ab 12 b0 40 a7 e6 30 d2 30 00 2f 22 ad
       0.096 -0.05734 -0.1272 -0.02832 0.1531 0.1506 0.1094 -0.0802
0000e0 b0 2c 20 ac 9f 90 a1 ae ff a2 79 b1 67 2e 47 2c
       0.07324 -0.06445 -0.000564 -0.1036 -0.013664 -0.171 0.10004 0.06683
0000f0 84 b1 8d 2f 9b 2f c4 2a 8f 2b 12 af 0e 2a 18 2c
       -0.1724 0.118 0.11884 0.05286 0.05905 -0.1105 0.0473 0.06396
000100 61 a8 9b a2 2c ac 73 2f 56 2e 78 2c ed a9 73 9f
       -0.0342 -0.0129 -0.0652 0.1164 0.099 0.0698 -0.0463 -0.007275
000110 36 a4 00 2a 36 31 ec 21 76 30 02 30 39 b0 0c af
       -0.01645 0.04688 0.1628 0.011566 0.1394 0.1252 -0.132 -0.1101
000120 d8 9e 04 ae ab 30 3b 31 3c a4 25 a9 2b ac 51 b0
       -0.006683 -0.094 0.1459 0.1635 -0.01654 -0.0402 -0.0651 -0.1349
000130 22 30 51 31 5f af 48 b1 42 9f 3f aa 23 aa 47 89
       0.1292 0.1661 -0.1152 -0.165 -0.007088 -0.0488 -0.04794 -0.000161
000140 8c b1 3a a8 d2 2e aa 2d 41 b1 44 af 31 af c8 30
       -0.1733 -0.03302 0.10657 0.0885 -0.1642 -0.1135 -0.11237 0.1494
000150 01 2f 01 b0 0d 2f b5 af c7 28 81 a6 57 ac c0 aa
       0.10944 -0.1251 0.11017 -0.1204 0.03732 -0.0254 -0.0678 -0.05273
000160 1a ab 48 2f 00 2c f7 af 0b 2b e4 ac ec aa b2 b0
       -0.05548 0.1138 0.0625 -0.12445 0.05502 -0.0764 -0.05408 -0.1467
000170 84 31 60 b1 ca 2e 45 b1 ae ac 20 31 7f 17 68 ac
       0.1724 -0.168 0.1061 -0.1647 -0.0731 0.1602 0.00183 -0.06885
000180 b6 29 ca 30 23 a0 9f 30 15 a4 ec ae ff af 00 b1
       0.04462 0.1497 -0.00808 0.1444 -0.01595 -0.10815 -0.12494 -0.1562
000190 fa ad 99 30 1e 27 09 08 03 99 48 1d b3 2c 8b aa
       -0.0934 0.1437 0.0278 0.0001231 -0.002447 0.005157 0.0734 -0.05112
0001a0 c1 a2 1a 28 df 23 ba 2f c1 a8 60 30 cc a7 a0 28
       -0.01319 0.03204 0.01537 0.1207 -0.03714 0.1367 -0.03046 0.03613
0001b0 4b ae 06 30 44 af 81 a9 64 30 3c 31 47 2a 5c 31
       -0.0983 0.1257 -0.1135 -0.043 0.1372 0.1636 0.04904 0.1675
0001c0 28 a9 a6 29 cc ae 1a 31 d4 ae a6 28 46 b0 f9 2e
       -0.04028 0.04413 -0.1062 0.1594 -0.1067 0.03632 -0.1335 0.10895
0001d0 7f 31 49 2c a1 b0 e1 a3 65 ad 23 af 63 28 98 2d
       0.1718 0.06696 -0.1447 -0.01539 -0.0843 -0.1115 0.03427 0.0874
0001e0 de b0 e7 a8 65 ad 99 b1 f3 af 35 26 fa b0 37 b0
       -0.1521 -0.0383 -0.0843 -0.1749 -0.1242 0.02425 -0.1555 -0.1317
0001f0 05 a5 ca b0 bc a8 84 af 45 b0 fa 26 70 b0 c6 2d
       -0.0196 -0.1497 -0.037 -0.11743 -0.1334 0.02725 -0.1387 0.0902

arith.constant3 f2 [32, 64]
000000 83 31 0c 2e 92 33 66 30 fb 27 70 2b b9 2d 67 b2
       0.1722 0.0945 0.2366 0.1375 0.03117 0.0581 0.0894 -0.2001
000010 9b a9 f2 b2 ba a6 5d b1 87 2a fb b3 16 b3 c7 30
       -0.0438 -0.217 -0.02628 -0.1676 0.051 -0.2494 -0.2214 0.1493
000020 67 30 f5 32 f9 b1 df b3 e7 2f c7 29 e8 2f 98 ac
       0.1376 0.2174 -0.1866 -0.246 0.1235 0.04514 0.12354 -0.0718
000030 35 b2 37 33 d1 b1 0f b3 ef 31 d7 ab 0a af f0 30
       -0.194 0.2255 -0.1818 -0.2206 0.1854 -0.06125 -0.11 0.1543
000040 70 24 7e a8 c5 a7 8d 2a 13 31 48 21 ed b1 9a 2f
       0.01733 -0.0351 -0.03035 0.05118 0.1586 0.010315 -0.1852 0.1188
000050 4f ad 0f 2d 69 b0 74 b0 06 b3 e7 a5 36 ac 29 b2
       -0.08295 0.07904 -0.1378 -0.1392 -0.2195 -0.02306 -0.0658 -0.1925
000060 b0 29 4b b1 16 33 91 28 c4 28 6b 2d dc 2d 16 26
       0.04443 -0.1654 0.2214 0.03568 0.03723 0.08466 0.09155 0.02377
000070 17 2f 86 33 42 ae 2a b2 00 30 71 b3 d5 2e 50 2a
       0.1108 0.2351 -0.0978 -0.1926 0.125 -0.2325 0.10675 0.04932
000080 39 2f e7 22 40 a9 7e b3 1b ae ad 2d 33 2a 1e 31
       0.11285 0.01348 -0.04102 -0.2341 -0.0954 0.0887 0.04843 0.1599
000090 45 b1 a6 b1 6e 33 f1 31 fb 30 e1 30 a2 b0 95 30
       -0.1647 -0.1765 0.2322 0.1857 0.1556 0.1525 -0.1448 0.1432
0000a0 d8 2f ad b3 c4 30 6d 31 67 ab 0b 27 cc b0 e8 31
       0.12256 -0.2399 0.1489 0.1696 -0.05783 0.02751 -0.1499 0.1846
0000b0 73 2e 25 30 20 ab 3a b1 ea ac 7d b1 a6 a0 8f 2f
       0.10077 0.1295 -0.05566 -0.1633 -0.0768 -0.1715 -0.00908 0.1181
0000c0 ba a8 a8 33 8f 29 b2 2d 3b 2f 45 b1 ef af ac 32
       -0.03693 0.2393 0.04343 0.089 0.113 -0.1647 -0.12396 0.2085
0000d0 d2 ad 35 b1 ba ac 96 ab 92 a4 5b 2f 28 2c 4b ad
       -0.09094 -0.1627 -0.07385 -0.05927 -0.01785 0.1149 0.06494 -0.0827
0000e0 14 af a1 30 6b b1 19 25 b9 b0 a9 2e 98 2c 3b 2d
       -0.1106 0.1447 -0.1693 0.01991 -0.1476 0.10406 0.0718 0.0817
0000f0 14 b2 e0 30 2c ad 41 31 7f 2d b5 30 03 ab c9 ac
       -0.19 0.1523 -0.0808 0.1642 0.0859 0.1471 -0.05478 -0.07477
000100 52 2f 53 b1 46 ad 3f a8 ef 32 62 30 45 b3 89 b1
       0.1144 -0.1664 -0.0824 -0.03317 0.2167 0.137 -0.2272 -0.173
000110 eb ae f0 32 82 2c a8 31 bf 21 ae af 6a 28 95 a9
       -0.1081 0.2168 0.07043 0.1768 0.01122 -0.12 0.0345 -0.0436
000120 2c 30 55 ab cd af 40 2c 7d 31 58 29 09 30 25 30
       0.1304 -0.05728 -0.1219 0.0664 0.1715 0.04175 0.1261 0.1295
000130 dd b1 c4 18 1f b1 b0 b0 de b0 04 26 af 2e 55 30
       -0.1832 0.002327 -0.16 -0.1465 -0.1521 0.0235 0.10443 0.1354
000140 d0 b1 c5 b2 28 30 3c ad 27 b0 f4 2c 61 ad fa 33
       -0.1816 -0.2115 0.1299 -0.0818 -0.1298 0.0774 -0.08405 0.2493
000150 89 2f b9 2e 8c a9 d2 b1 46 af 0b 2d 1c b1 46 25
       0.11774 0.10504 -0.04333 -0.1819 -0.11365 0.0788 -0.1597 0.0206
000160 2a aa e3 b3 22 ac a2 b0 de 24 94 b2 1e af 62 2c
       -0.04816 -0.2465 -0.0646 -0.1448 0.01901 -0.2056 -0.1112 0.0685
000170 ce b0 40 1a e6 33 a2 b3 15 af 13 b3 36 b3 2c b3
       -0.1501 0.003052 0.2468 -0.2385 -0.11066 -0.2211 -0.2253 -0.2241
000180 2f b2 88 2b b5 31 5f ae ad 30 3b af 04 2b fe ae
       -0.1932 0.05884 0.1783 -0.09955 0.1461 -0.113 0.0548 -0.10925
000190 4e 2f 85 30 22 ad 32 21 6f b3 d5 30 e0 30 82 32
       0.11414 0.1412 -0.0802 0.01015 -0.2323 0.151 0.1523 0.2034
0001a0 e2 33 ac 33 59 2c ea 32 ab 2c d5 b1 cd 2a 01 32
       0.2463 0.2397 0.06793 0.2161 0.07294 -0.1823 0.05313 0.1876
0001b0 47 1f 79 32 18 31 7b a5 6a 2e 37 33 ec b3 5e b3
       0.007107 0.2023 0.1592 -0.02141 0.1002 0.2255 -0.2476 -0.2302
0001c0 f2 a3 44 ac 4c af 27 31 4e 2d dc 2c db 28 bd a7
       -0.01552 -0.06665 -0.114 0.161 0.0829 0.0759 0.03793 -0.03023
0001d0 4f 33 f0 b3 49 2c 84 a9 b3 33 81 30 94 32 18 b2
       0.2284 -0.248 0.06696 -0.0431 0.2406 0.1407 0.2056 -0.1904
0001e0 ad ad 7f b1 04 33 ed b0 ad 28 1c a7 f1 22 8f ae
       -0.0887 -0.1718 0.2192 -0.1539 0.03653 -0.02777 0.01356 -0.1025
0001f0 3a b3 f7 aa 0a 27 66 33 70 2b 9c ad c5 ab 48 32
       -0.2258 -0.0544 0.0275 0.2312 0.0581 -0.08765 -0.0607 0.1963
